Tutorial2_model_negative_weights.pt (torch, 9304 bytes, 4 tensors)

sim.layers.0.weight f4 [16, 24]
0	0x3f8e204e	1.1103609
1	0x3fbc13b0	1.4693508
2	0x3f4e3895	0.8055509
3	0x3f3e3ff4	0.74316335
4	0x3f216f32	0.63060296
5	0x3faaeef7	1.3354176
6	0x3fdd9e52	1.731394
7	0x3fbd0ea2	1.477009
8	0x3fabdcca	1.3426754
9	0x3fc591bb	1.5435098
10	0x3f5c30a3	0.86011714
11	0x3faf6909	1.3703929
12	0x3f9027f8	1.1262197
13	0x3f736e81	0.9509049
14	0x3ff43d41	1.9081193
15	0x3f41112e	0.7541684
16	0x3fb35d73	1.4012893
17	0x3f307370	0.68926144
18	0x3fa2f079	1.2729636
19	0x3f7de1fd	0.99172956
20	0x3fc3e441	1.5304033
21	0x3f688d2c	0.9084041
22	0x3fe02c19	1.7513458
23	0x3f3bfdec	0.7343433
24	0x3fdbd3ba	1.7173989
25	0x3f46304b	0.7741744
26	0x3fd6c52f	1.6778926
27	0x3f80ac26	1.0052536
28	0x3fa6b6dd	1.3024555
29	0x3f959469	1.1685916
30	0x3fe0205f	1.7509879
31	0x3fc363df	1.5264853
32	0x3f2ee360	0.68315697
33	0x3fae96b4	1.3639741
34	0x3f512d3a	0.81709635
35	0x3fe8f5bd	1.8199993
36	0x3fb5206f	1.4150523
37	0x3f8f0b43	1.1175312
38	0x3f728773	0.9473793
39	0x3fc4d895	1.5378596
40	0x3f61561e	0.8802203
41	0x3fd174e2	1.6363795
42	0x3fd6db14	1.6785607
43	0x3fddc94b	1.7327055
44	0x3fbdce92	1.4828665
45	0x3f3049ec	0.68862796
46	0x3fe746f5	1.8068529
47	0x3f8ae84c	1.0852141
48	0x3f8b814e	1.0898836
49	0x3f9cc602	1.2247927
50	0x3fe847bf	1.8146895
51	0x3feb4bbb	1.8382486
52	0x3fb4c3e7	1.4122285
53	0x3fd0ad53	1.6302894
54	0x3f24ec13	0.6442272
55	0x3fa639d6	1.29864
56	0x3f2e43c4	0.6807215
57	0x3fc4d8cf	1.5378665
58	0x3f4d210b	0.80128545
59	0x3f860a81	1.0471956
60	0x3fe50a9d	1.7893864
61	0x3ffbb755	1.9665323
62	0x3f626167	0.88429874
63	0x3f6837d6	0.907102
64	0x3fb18434	1.386847
65	0x3fca3638	1.5797796
66	0x3f975a6b	1.1824468
67	0x3f8ac6d2	1.0841925
68	0x3f5717f8	0.8402095
69	0x3fcccf19	1.6000701
70	0x3ffe9e95	1.9892145
71	0x3f76b508	0.9636998
72	0x3fd0457c	1.6271205
73	0x3fd22900	1.6418762
74	0x3feecaf4	1.8655686
75	0x3f9c32de	1.2203023
76	0x3fa9be30	1.3261166
77	0x3fe7c0df	1.8105735
78	0x3fde9d08	1.7391672
79	0x3ffe8577	1.988448
80	0x3f8cb92c	1.099401
81	0x3fc9cf51	1.5766393
82	0x3fe4f72e	1.7887933
83	0x3f525712	0.8216411
84	0x3fb836c9	1.4391719
85	0x3f920eba	1.1410744
86	0x3fe09322	1.7544901
87	0x3f7b2f1a	0.98118746
88	0x3fac9e9d	1.3485905
89	0x3fdc94da	1.7232926
90	0x3f27c16e	0.65529525
91	0x3f363e95	0.7118924
92	0x3f710442	0.9414712
93	0x3fe00988	1.7502909
94	0x3fe2e6ed	1.7726723
95	0x3f530dd1	0.8244296
96	0x3fb716cd	1.4303833
97	0x3f6dd869	0.9290834
98	0x3f7a54d0	0.97785664
99	0x3ff3ac30	1.9036922
100	0x3fd234f0	1.6422405
101	0x3f8d6ace	1.1048219
102	0x3fb32963	1.3997005
103	0x3fb764b2	1.4327605
104	0x3fbb6354	1.4639688
105	0x3f87b1f3	1.0601181
106	0x3f63458f	0.88778013
107	0x3fe14d02	1.7601626
108	0x3fb2742f	1.3941706
109	0x3fcb982b	1.5905813
110	0x3f850d77	1.0394734
111	0x3fd13b7e	1.634628
112	0x3fe79a84	1.809403
113	0x3fdd78d4	1.7302499
114	0x3fbe4ec8	1.4867792
115	0x3ffef5fa	1.9918816
116	0x3fa6343c	1.2984691
117	0x3fb9a73c	1.4504161
118	0x3ffbf84a	1.9685147
119	0x3ffdcaf9	1.9827567
120	0x3f802888	1.0012369
121	0x3ff71cab	1.9305624
122	0x3fc7d434	1.5611634
123	0x3f9c5ed2	1.2216437
124	0x3ff52a29	1.9153491
125	0x3f6f06dc	0.9336984
126	0x3fe03383	1.751572
127	0x3ffed00a	1.9907238
128	0x3f513494	0.8172085
129	0x3f62f7b0	0.8865919
130	0x3f1b3a6b	0.60636014
131	0x3f95d859	1.1706649
132	0x3f2a0fb8	0.66430235
133	0x3f8816fc	1.0632014
134	0x3fc2302e	1.5170953
135	0x3fe529d4	1.790339
136	0x3fd84c32	1.6898253
137	0x3fd8b760	1.6930962
138	0x3fcb1ee1	1.5868798
139	0x3f5e7375	0.86894923
140	0x3f3e8420	0.74420357
141	0x3faa4561	1.3302423
142	0x3ffbeebf	1.9682235
143	0x3fabc423	1.3419231
144	0x3f9e46c4	1.2365346
145	0x3f532b96	0.8248838
146	0x3f74a876	0.9556955
147	0x3f42a947	0.76039547
148	0x3feeabe8	1.8646212
149	0x3f97548a	1.1822674
150	0x3f2dabf3	0.678405
151	0x3fafa26e	1.3721445
152	0x3face6f1	1.3507978
153	0x3f9b4838	1.2131414
154	0x3fc6793c	1.5505748
155	0x3fd62502	1.6730044
156	0x3f244950	0.64174366
157	0x3f42ec88	0.7614217
158	0x3fa2ae9b	1.2709535
159	0x3f258503	0.64656085
160	0x3f29f15e	0.6638392
161	0x3ff616f1	1.9225751
162	0x3f9f22b2	1.2432463
163	0x3f74fff8	0.9570308
164	0x3f87aa6b	1.0598882
165	0x3f41339f	0.7546939
166	0x3fecc5a2	1.8497813
167	0x3f9349c5	1.1506888
168	0x3f673f87	0.9033131
169	0x3f44e476	0.76911104
170	0x3fdb2460	1.7120476
171	0x3f9a03b4	1.203238
172	0x3f9d8464	1.2306027
173	0x3f8e93ef	1.1138896
174	0x3f7579f7	0.9588923
175	0x3fb5f813	1.4216331
176	0x3feb55e9	1.8385593
177	0x3f64e0ad	0.8940533
178	0x3faab167	1.3335389
179	0x3f43a083	0.76416796
180	0x3f78caa7	0.9718422
181	0x3ff4bdf7	1.9120473
182	0x3fa7edf8	1.3119497
183	0x3ffc2472	1.9698622
184	0x3f96ad77	1.1771687
185	0x3f6c446a	0.9229189
186	0x3f60dee6	0.87840116
187	0x3ff63853	1.9235939
188	0x3f42ff5f	0.76170915
189	0x3fd597f8	1.6687002
190	0x3fbd1f67	1.4775208
191	0x3fc12bbd	1.5091473
192	0x3fd88fac	1.6918845
193	0x3f8ef566	1.116864
194	0x3fde3146	1.7358787
195	0x3f3e06ff	0.74229425
196	0x3f8767a9	1.057851
197	0x3fe783be	1.808708
198	0x3fc09494	1.5045342
199	0x3f9a188b	1.203874
200	0x3f9179c5	1.1365286
201	0x3f5f4d3b	0.8722722
202	0x3fdce291	1.7256643
203	0x3fa31b0d	1.274263
204	0x3fa36002	1.2763674
205	0x3fbb46a4	1.4630933
206	0x3fe9197f	1.8210906
207	0x3f703b8e	0.93840873
208	0x3f877c39	1.0584785
209	0x3fe3af38	1.7787848
210	0x3fd88e9c	1.6918521
211	0x3f756267	0.95853275
212	0x3f1b864c	0.60751796
213	0x3fb730db	1.4311785
214	0x3fd5f674	1.6715837
215	0x3fbc2116	1.4697597
216	0x3fe58d3b	1.7933725
217	0x3f3e9c05	0.74456817
218	0x3fd3ef50	1.6557407
219	0x3f5d6524	0.86482453
220	0x3fd95c4f	1.6981295
221	0x3fe88fd8	1.8168898
222	0x3fc25b2e	1.5184076
223	0x3fee87bc	1.8635173
224	0x3f56ae18	0.83859396
225	0x3f2c7221	0.67361647
226	0x3f207f8f	0.6269464
227	0x3fde3369	1.7359439
228	0x3fc5caec	1.5452552
229	0x3f48f69a	0.78501284
230	0x3fd25fda	1.6435502
231	0x3ff7929b	1.9341615
232	0x3f1c30f6	0.6101221
233	0x3fe7f8f5	1.8122851
234	0x3fb3b251	1.4038793
235	0x3faf21ba	1.3682168
236	0x3ff7057f	1.9298552
237	0x3ff7b821	1.9353067
238	0x3fcc9b15	1.5984827
239	0x3fed8513	1.8556236
240	0x3fcb4717	1.588107
241	0x3fb4ffe4	1.4140592
242	0x3f2fff08	0.6874852
243	0x3fb722bf	1.4307479
244	0x3f4e60f3	0.8061668
245	0x3fc1803a	1.5117257
246	0x3fb5cab8	1.420249
247	0x3fa80def	1.3129252
248	0x3f5246b4	0.82139134
249	0x3f6017e3	0.8753645
250	0x3fe8a072	1.8173964
251	0x3fd19a85	1.6375281
252	0x3fd5a6a8	1.6691484
253	0x3f8b6576	1.0890338
254	0x3f978e20	1.1840248
255	0x3f8edc58	1.1160994

sim.layers.2.weight f4 [24, 24]
0	0x3ff0a1b9	1.8799354
1	0x3f78217f	0.9692611
2	0x3f813b3b	1.0096201
3	0x3faf13f2	1.3677962
4	0x3fbd7ad3	1.4803108
5	0x3f9e47c9	1.2365657
6	0x3fe46267	1.784253
7	0x3f6455df	0.8919353
8	0x3fc5f400	1.5465088
9	0x3fa5cc41	1.2952958
10	0x3f3c0ef2	0.73460305
11	0x3f83b415	1.0289332
12	0x3fbcadad	1.4740502
13	0x3fb810e4	1.4380155
14	0x3fe8183b	1.8132395
15	0x3fe1d97a	1.7644494
16	0x3f6b5cc2	0.9193841
17	0x3f80ab21	1.0052224
18	0x3f93f36c	1.1558661
19	0x3f4c9126	0.7990898
20	0x3f8e31a3	1.1108898
21	0x3f398193	0.7246334
22	0x3fc87a89	1.5662395
23	0x3fe657f1	1.7995588
24	0x3fad7e84	1.3554235
25	0x3f4c83a2	0.79888356
26	0x3f451725	0.7698844
27	0x3f8384d0	1.0274906
28	0x3fc075e1	1.5035974
29	0x3fa895e5	1.3170744
30	0x3fb6b0f6	1.4272754
31	0x3ffad8a9	1.959737
32	0x3fd00396	1.6251094
33	0x3fb9aa80	1.4505157
34	0x3f94459f	1.1583747
35	0x3fd0c902	1.6311343
36	0x3fc72de8	1.5560884
37	0x3f2b806e	0.66992843
38	0x3f62f1e9	0.88650376
39	0x3fa96851	1.323496
40	0x3fc865e6	1.5656097
41	0x3fd1fd9c	1.640552
42	0x3f622047	0.883305
43	0x3f1b035c	0.60552
44	0x3fa1bb8b	1.2635359
45	0x3f9c283c	1.2199779
46	0x3fc0666f	1.503126
47	0x3f8dc26a	1.1074955
48	0x3feabc5d	1.8338734
49	0x3facd86c	1.3503547
50	0x3fe7bcaa	1.8104451
51	0x3f50beaa	0.8154093
52	0x3fca1a4b	1.5789274
53	0x3fb16207	1.385804
54	0x3f743559	0.953939
55	0x3fd2d1aa	1.6470234
56	0x3f1b5adf	0.60685533
57	0x3fee6eaa	1.8627522
58	0x3fae2327	1.3604478
59	0x3faf1393	1.3677849
60	0x3fcf5124	1.6196637
61	0x3fae618d	1.362352
62	0x3fcd597a	1.6042931
63	0x3fdeea62	1.7415278
64	0x3f4108a0	0.75403786
65	0x3fe23984	1.7673802
66	0x3f9986ad	1.1994225
67	0x3f91dd4b	1.1395658
68	0x3fb85188	1.4399881
69	0x3fec29e3	1.8450283
70	0x3f6b6258	0.91946936
71	0x3f551ebf	0.8325004
72	0x3fde01a4	1.7344251
73	0x3f78a2b1	0.9712325
74	0x3fc33f2a	1.5253651
75	0x3f993318	1.1968718
76	0x3fbf100b	1.4926771
77	0x3feac66e	1.8341806
78	0x3f71fb4c	0.94524074
79	0x3f75d73d	0.9603155
80	0x3fd25c10	1.6434345
81	0x3fab4e4a	1.3383267
82	0x3f9c89ee	1.2229593
83	0x3f2f6492	0.68512833
84	0x3ff25079	1.8930808
85	0x3fa301bc	1.2734904
86	0x3f95e595	1.1710688
87	0x3f819ebf	1.012657
88	0x3f94b7ef	1.1618632
89	0x3fd1f2dc	1.640224
90	0x3fa45738	1.2839117
91	0x3ff306d5	1.898646
92	0x3fa13a1b	1.2595857
93	0x3f998bd3	1.1995796
94	0x3fd8f991	1.6951162
95	0x3fa414e1	1.2818872
96	0x3f9453d8	1.1588087
97	0x3fc4cf6b	1.5375799
98	0x3fecf4ed	1.8512245
99	0x3fbd179d	1.4772831
100	0x3fe4a9fb	1.7864374
101	0x3fe0c756	1.7560833
102	0x3fc03dc3	1.5018848
103	0x3fc58d8b	1.543382
104	0x3fc2bf77	1.521468
105	0x3faf46a3	1.3693432
106	0x3ff325e9	1.8995944
107	0x3ff9247a	1.9464257
108	0x3fc5c336	1.5450199
109	0x3fa27863	1.2692989
110	0x3ff749fa	1.9319451
111	0x3f405475	0.7512887
112	0x3fe87fc8	1.8163996
113	0x3fd66b0e	1.675142
114	0x3fe07a5d	1.7537342
115	0x3f9fb77a	1.2477868
116	0x3f46f22f	0.7771329
117	0x3fe5fc45	1.7967612
118	0x3f7e719d	0.9939211
119	0x3fbe856f	1.4884471
120	0x3fd905a0	1.6954842
121	0x3f26519d	0.6496828
122	0x3fac47d0	1.3459415
123	0x3f870a54	1.0550027
124	0x3fe5d888	1.7956705
125	0x3f5b38ab	0.85633343
126	0x3fdd513b	1.7290415
127	0x3fde4599	1.736499
128	0x3fd74c75	1.6820208
129	0x3ffc0273	1.9688247
130	0x3fb47551	1.4098302
131	0x3f2a6063	0.66553324
132	0x3fe5dc06	1.7957771
133	0x3faf1c75	1.3680559
134	0x3fa8be4c	1.3183074
135	0x3f213b8b	0.6298148
136	0x3f925a78	1.1433859
137	0x3f76e51b	0.9644334
138	0x3ffeb118	1.9897795
139	0x3fe6786b	1.8005499
140	0x3fe916ad	1.8210045
141	0x3fe36959	1.7766525
142	0x3f5db7f7	0.86608833
143	0x3f8077b8	1.0036535
144	0x3f83850e	1.027498
145	0x3f82e5d1	1.0226384
146	0x3fec0bb7	1.8441075
147	0x3fc508fe	1.5393369
148	0x3fee259e	1.860523
149	0x3fa26d58	1.2689619
150	0x3f2df613	0.67953604
151	0x3f8c67ac	1.0969138
152	0x3fe4e3db	1.7882036
153	0x3fdcb0fa	1.7241509
154	0x3fc274d7	1.5191907
155	0x3f8c1e63	1.0946773
156	0x3f249a83	0.64298266
157	0x3f6d4c9d	0.9269503
158	0x3fd58e71	1.6684095
159	0x3f82116c	1.0161567
160	0x3fd17c8e	1.6366136
161	0x3fbf5276	1.494704
162	0x3f846cbe	1.0345685
163	0x3fdd3f59	1.7284957
164	0x3f899552	1.0748694
165	0x3fa33483	1.27504
166	0x3f84452c	1.033361
167	0x3f23aff0	0.63940334
168	0x3fb4a871	1.4113904
169	0x3fc0c372	1.5059645
170	0x3f7268cd	0.94691163
171	0x3fddc724	1.7326398
172	0x3f2bb5f4	0.67074513
173	0x3f20b5fa	0.62777674
174	0x3f5f27eb	0.87170285
175	0x3f876f0e	1.0580766
176	0x3f9be594	1.2179437
177	0x3f94ad7f	1.1615447
178	0x3fcfd137	1.6235722
179	0x3f2f8721	0.68565565
180	0x3fb31376	1.3990314
181	0x3fa88002	1.3164065
182	0x3fbe9c96	1.4891536
183	0x3ffef9f3	1.9920028
184	0x3fddcccd	1.7328125
185	0x3f6aab5e	0.91667736
186	0x3f3b0b96	0.73064554
187	0x3f90f275	1.1323992
188	0x3f72b525	0.94807655
189	0x3fc56339	1.5420905
190	0x3fa738ab	1.3064169
191	0x3fef047d	1.8673245
192	0x3fc9986e	1.5749643
193	0x3f95ecdb	1.1712908
194	0x3fa97ac4	1.324059
195	0x3fbbdba2	1.4676402
196	0x3f9b4823	1.2131389
197	0x3feeb38b	1.8648542
198	0x3f40aef8	0.7526698
199	0x3fd21252	1.6411841
200	0x3f5a91ef	0.85378927
201	0x3f2fce64	0.686743
202	0x3f940163	1.1562923
203	0x3fd21001	1.6411134
204	0x3fe5b53c	1.7945933
205	0x3fbce26b	1.4756597
206	0x3f9ea7ed	1.2394997
207	0x3fa16089	1.2607585
208	0x3f8213ed	1.0162331
209	0x3f9e5c0a	1.2371838
210	0x3fa0358d	1.2516342
211	0x3ff2a571	1.8956739
212	0x3fdad67f	1.7096709
213	0x3f3d665e	0.73984325
214	0x3fa6c549	1.3028957
215	0x3f5e9459	0.8694511
216	0x3f9829f5	1.1887804
217	0x3f3e69d3	0.74380225
218	0x3fbdb0ec	1.4819617
219	0x3f4b8e6c	0.79514194
220	0x3ffed515	1.9908777
221	0x3fea1bf2	1.8289778
222	0x3f51986c	0.818732
223	0x3f2416f4	0.64097524
224	0x3fa9d346	1.32676
225	0x3f8d534d	1.1041046
226	0x3fc0c2ae	1.5059412
227	0x3f5381c9	0.8261991
228	0x3fcafb96	1.5858028
229	0x3f320f33	0.6955444
230	0x3f6e297e	0.9303206
231	0x3f6e7efe	0.93162525
232	0x3fd1c060	1.6386833
233	0x3fa42150	1.2822666
234	0x3f20a4fb	0.6275174
235	0x3f66748e	0.900216
236	0x3f79ded1	0.97605616
237	0x3f2671ef	0.650176
238	0x3fb1df7d	1.3896328
239	0x3fc664f4	1.5499558
240	0x3f95f5dd	1.1715657
241	0x3f82be80	1.0214386
242	0x3fa5db4b	1.2957548
243	0x3f3e76f8	0.7440028
244	0x3f5faf53	0.873769
245	0x3fa45b47	1.2840356
246	0x3ff5ffa5	1.9218642
247	0x3f8ad8e6	1.0847442
248	0x3fd2cfa4	1.6469617
249	0x3f83234d	1.0245148
250	0x3f8e8c76	1.1136615
251	0x3f223629	0.6336389
252	0x3ff0a1dc	1.8799396
253	0x3ffda560	1.9816093
254	0x3fa484a3	1.2852978
255	0x3fdf5442	1.7447588

sim.layers.4.weight f4 [24, 24]
0	0x3fea422c	1.8301444
1	0x3fbc2eab	1.4701742
2	0x3fd72471	1.6807996
3	0x3fb8056c	1.4376655
4	0x3ff3486b	1.9006475
5	0x3fdba778	1.7160482
6	0x3fe63d4d	1.7987458
7	0x3f9aea67	1.2102784
8	0x3f37c49f	0.71784395
9	0x3f7861b4	0.97024083
10	0x3fc5353a	1.5406868
11	0x3fe5188d	1.7898117
12	0x3f839297	1.0279111
13	0x3ff109b9	1.8831092
14	0x3fb2aefd	1.3959652
15	0x3fa65d7f	1.2997283
16	0x3faa3e27	1.3300217
17	0x3f9722ce	1.1807497
18	0x3ff9abc3	1.9505543
19	0x3faae0d6	1.3349864
20	0x3fddc7dc	1.7326617
21	0x3f34afe3	0.7058088
22	0x3f712d0d	0.9420937
23	0x3fb099f8	1.3796988
24	0x3fee7d9f	1.8632087
25	0x3fd18ccc	1.6371093
26	0x3fb7e2ae	1.4366052
27	0x3f1bb773	0.60826796
28	0x3fa894fe	1.3170469
29	0x3f557ce4	0.8339369
30	0x3f33b5b4	0.7019913
31	0x3fb337b6	1.4001377
32	0x3f5aec01	0.85516363
33	0x3ff80898	1.9377623
34	0x3f6bb27c	0.9206922
35	0x3fc327ee	1.524656
36	0x3fdb552c	1.7135367
37	0x3f4277ac	0.75963855
38	0x3fd3b1a1	1.6538583
39	0x3f9a0900	1.2033997
40	0x3fd53701	1.6657411
41	0x3ffda62f	1.981634
42	0x3f7f4e46	0.9972881
43	0x3f8029fc	1.0012813
44	0x3fee1e40	1.8602982
45	0x3fafea0a	1.3743298
46	0x3f9dc4d7	1.2325696
47	0x3feaae60	1.8334465
48	0x3f7649b5	0.9620622
49	0x3fa21e07	1.2665414
50	0x3fe40280	1.7813263
51	0x3fc96e2d	1.5736748
52	0x3f58e40b	0.84722966
53	0x3fbd9e88	1.4814005
54	0x3f442bdd	0.7662943
55	0x3f6b8f72	0.92015755
56	0x3fdfee82	1.7494662
57	0x3f8e8593	1.1134514
58	0x3f7185f1	0.94345003
59	0x3facb6f0	1.3493328
60	0x3fbc555f	1.4713553
61	0x3f5da47f	0.86579126
62	0x3f53be93	0.8271267
63	0x3f1f2d73	0.62178725
64	0x3fbd7de9	1.480405
65	0x3f593ae3	0.8485548
66	0x3fad1b3a	1.3523934
67	0x3f928841	1.1447831
68	0x3f57a978	0.84242964
69	0x3f89b728	1.075902
70	0x3f42fc67	0.76166385
71	0x3f6df18d	0.929467
72	0x3fa428d4	1.282496
73	0x3f34963e	0.7054175
74	0x3f305687	0.6888203
75	0x3fe9c788	1.8264017
76	0x3faf501a	1.369632
77	0x3f7c8c0f	0.9865121
78	0x3fa35a75	1.276198
79	0x3fe96e79	1.8236839
80	0x3f36ab9b	0.713556
81	0x3f6e5c26	0.9310936
82	0x3f4ba8fc	0.79554725
83	0x3f9f9f86	1.2470558
84	0x3fa38f06	1.2778022
85	0x3f42276f	0.7584142
86	0x3fe3fc95	1.7811457
87	0x3f426e9f	0.75950044
88	0x3ffa6f25	1.9565169
89	0x3f528c41	0.8224526
90	0x3f9989a4	1.199513
91	0x3fb7bc04	1.4354253
92	0x3f7e1af6	0.9925989
93	0x3ff85fb7	1.940421
94	0x3f51f40d	0.82013017
95	0x3fa19acb	1.2625364
96	0x3f4a1869	0.78943497
97	0x3fbfa75e	1.4972951
98	0x3ff3101b	1.898929
99	0x3ff9bae4	1.951016
100	0x3fb15df5	1.3856798
101	0x3f729b5a	0.947683
102	0x3ffd4dc5	1.9789358
103	0x3fad9088	1.3559732
104	0x3fe305e7	1.7736176
105	0x3f703062	0.93823826
106	0x3f79c931	0.9757262
107	0x3f389d7d	0.7211531
108	0x3ff9186b	1.9460577
109	0x3fb59197	1.4185055
110	0x3f4b500a	0.79419005
111	0x3fadd35a	1.3580124
112	0x3f803e81	1.0019075
113	0x3fab2ed2	1.3373663
114	0x3fc3b059	1.5288192
115	0x3f74c3d8	0.95611334
116	0x3fb65afb	1.4246515
117	0x3f5b0160	0.85548973
118	0x3fb7df7c	1.4365077
119	0x3f1fc6a1	0.6241246
120	0x3fb51629	1.4147388
121	0x3fffd3e5	1.998654
122	0x3ff957ca	1.9479916
123	0x3fc765f1	1.5577985
124	0x3fe8be0c	1.8182998
125	0x3ffd17a7	1.9772843
126	0x3fbf9147	1.496621
127	0x3fc4b6b8	1.5368261
128	0x3fb1cbc9	1.3890315
129	0x3ff6140f	1.9224871
130	0x3ff3aef6	1.9037769
131	0x3f791340	0.97295
132	0x3fa2e55d	1.2726246
133	0x3f735ab5	0.9506028
134	0x3fc61fda	1.547847
135	0x3f1ec16b	0.6201388
136	0x3fc5d3ab	1.5455221
137	0x3f8e2cad	1.1107384
138	0x3fc675f5	1.5504748
139	0x3fc2ca98	1.5218077
140	0x3f745f51	0.9545794
141	0x3fd47d55	1.6600748
142	0x3fccadf3	1.5990585
143	0x3f3479a7	0.70498127
144	0x40000bab	2.0007122
145	0x3ff409da	1.9065506
146	0x3fdea062	1.7392695
147	0x3f9d8ce1	1.2308618
148	0x3fc6a6bb	1.5519632
149	0x3f6aca9b	0.917154
150	0x3f87badb	1.0603899
151	0x3fd143a9	1.6348773
152	0x3fcdf204	1.6089482
153	0x3fca3217	1.5796536
154	0x3f2236f1	0.63365084
155	0x3ff07074	1.8784318
156	0x3f811ec9	1.008752
157	0x3ff479cc	1.909967
158	0x3fefa3e4	1.872189
159	0x3fc74019	1.5566436
160	0x3ffffffe	1.9999998
161	0x3fda6c73	1.7064346
162	0x3fda5544	1.7057271
163	0x3f88917c	1.0669398
164	0x3ffa037e	1.9532316
165	0x3fbd723d	1.4800488
166	0x3fdbb11f	1.7163428
167	0x3f923b17	1.1424283
168	0x3fe74a4a	1.8069546
169	0x3ff5e265	1.9209715
170	0x3f437cde	0.7636241
171	0x3fefdabe	1.873863
172	0x3f565e5c	0.8373773
173	0x3f516cf3	0.8180687
174	0x3f370b8f	0.7150201
175	0x3fc04a71	1.5022718
176	0x3f464073	0.7744209
177	0x3f84abe9	1.0364963
178	0x3f72b7fe	0.94812
179	0x3fbe58d3	1.4870857
180	0x3f1cde51	0.6127673
181	0x3f7aa5b6	0.97909105
182	0x3fa70e33	1.3051208
183	0x3fae723f	1.3628615
184	0x3f7bde71	0.98386294
185	0x3fc6801c	1.5507846
186	0x3f569274	0.8381722
187	0x3f350991	0.7071772
188	0x3f99a97a	1.2004845
189	0x3f6bea73	0.92154616
190	0x3fdee0bb	1.7412332
191	0x3f52503e	0.8215369
192	0x3f9f6226	1.2451828
193	0x3fcc1a6c	1.5945563
194	0x3f30a4c3	0.69001406
195	0x3febfcf0	1.8436565
196	0x3f7c3707	0.98521465
197	0x3f8d8d20	1.1058693
198	0x3f5ef386	0.8709034
199	0x3f858a57	1.0432843
200	0x3f838afd	1.0276791
201	0x3f2ddd76	0.6791605
202	0x3fc555fe	1.5416868
203	0x3fa5d027	1.2954148
204	0x3ffe6fa1	1.9877816
205	0x3fe34e41	1.7758256
206	0x3ff3dbef	1.9051493
207	0x3fc05c2f	1.5028132
208	0x3fd5adc2	1.6693652
209	0x3ffad293	1.9595512
210	0x3fef67ac	1.8703513
211	0x3f443f80	0.76659393
212	0x3f92cee7	1.1469392
213	0x3f1f3d70	0.6220312
214	0x3faa2d16	1.3295009
215	0x3f86cae7	1.0530671
216	0x3ff4baf5	1.9119555
217	0x3fb51073	1.4145645
218	0x3fa7e096	1.3115413
219	0x3f4b79a9	0.79482514
220	0x3f411477	0.7542185
221	0x3fb3fa38	1.4060736
222	0x3f73a260	0.9516964
223	0x3f7ba2fa	0.9829556
224	0x3fe4f1de	1.7886312
225	0x3f6ff001	0.9372559
226	0x3f7d79d1	0.99014
227	0x3feb0af7	1.8362721
228	0x3fc9bb70	1.5760326
229	0x3f67ea15	0.90591556
230	0x3fc0f478	1.5074606
231	0x3fd32e2f	1.6498469
232	0x3f2e6092	0.68116105
233	0x3fb7a88a	1.4348309
234	0x3fba500c	1.4555678
235	0x3fa375a6	1.2770278
236	0x3ffccd8e	1.975023
237	0x3f557e74	0.8339608
238	0x3fd75498	1.6822691
239	0x3f6dad0b	0.9284217
240	0x3f347da3	0.70504206
241	0x3fe3f3f7	1.7808827
242	0x3f77c314	0.9678204
243	0x3faab974	1.3337846
244	0x3fd60860	1.6721306
245	0x3f363909	0.7118078
246	0x3f336818	0.7008071
247	0x3fc57cbc	1.5428691
248	0x3ff43243	1.9077839
249	0x3f9d3768	1.2282534
250	0x3fe5c778	1.7951498
251	0x3fc5938b	1.5435652
252	0x3fc05355	1.5025431
253	0x3f5b92c3	0.85770816
254	0x3ffb11f3	1.9614853
255	0x3fcf10e1	1.6177026

sim.layers.6.weight f4 [24, 4]
0	0x3fe9dd65	1.8270689
1	0x3f7fcaef	0.9991903
2	0x3ff3bd82	1.9042208
3	0x3fe39437	1.7779607
4	0x3ff8e707	1.9445504
5	0x3f2020a7	0.62549824
6	0x3fa7efd3	1.3120064
7	0x3f88759f	1.0660895
8	0x3fbc4458	1.4708357
9	0x3f4662f5	0.77494746
10	0x3fcb9ba6	1.5906875
11	0x3fa1bb0c	1.2635207
12	0x3f791c85	0.9730914
13	0x3f2c8270	0.6738653
14	0x3fd5b952	1.669718
15	0x3f8597cd	1.0436951
16	0x3fe90959	1.8205978
17	0x3fb6d0fe	1.4282529
18	0x3fc221dd	1.5166584
19	0x3f986755	1.1906534
20	0x3f9a8074	1.2070451
21	0x3f887309	1.0660106
22	0x3f32999a	0.6976563
23	0x3fde4be1	1.7366906
24	0x3f5c7ac5	0.8612483
25	0x3fdae7b3	1.7101959
26	0x3f8876a2	1.0661204
27	0x3fde52cd	1.7369019
28	0x3ff3c992	1.9045889
29	0x3f602b91	0.8756648
30	0x3ff0ebd5	1.882197
31	0x3fa81644	1.3131795
32	0x3f44feba	0.7695118
33	0x3fcb7d36	1.5897586
34	0x3fd9a52f	1.7003535
35	0x3ff4f76e	1.913801
36	0x3f235dea	0.63815176
37	0x3ff7d16a	1.9360783
38	0x3feadd70	1.8348827
39	0x3ffe0d39	1.9847785
40	0x3fd7a487	1.6847085
41	0x3f763210	0.9617014
42	0x3feabe3e	1.8339307
43	0x3ff7e9a3	1.9368175
44	0x3f84be66	1.0370605
45	0x3f98430e	1.1895463
46	0x3fed0e71	1.8520032
47	0x3fee0e44	1.8598104
48	0x3fe1f0d6	1.7651622
49	0x3feb5866	1.8386352
50	0x3f712215	0.9419263
51	0x3f96c13f	1.1777724
52	0x3f83359c	1.0250735
53	0x3fd57bb4	1.6678376
54	0x3fbd43e6	1.4786346
55	0x3f4172b5	0.75565654
56	0x3f9bbf76	1.2167804
57	0x3f3bae73	0.73313063
58	0x3f253e4b	0.64548177
59	0x3ff79d71	1.9344922
60	0x3f73bfd3	0.95214576
61	0x3fceea4e	1.6165254
62	0x3f92f57f	1.148117
63	0x3f93d8d2	1.1550543
64	0x3fa6f237	1.3042668
65	0x3feccae1	1.8499414
66	0x3f9a8c4b	1.2074064
67	0x3ff00f78	1.8754721
68	0x3fdb6d6a	1.7142766
69	0x3fe46147	1.7842187
70	0x3f2b57fc	0.6693113
71	0x3f780f23	0.96898097
72	0x3f3c001a	0.73437655
73	0x3f93df98	1.155261
74	0x3f9461ab	1.1592306
75	0x3fb8242c	1.4386039
76	0x3ff747a5	1.9318739
77	0x3fcf21d7	1.6182202
78	0x3f513112	0.817155
79	0x3f5b793c	0.85731864
80	0x3fea8f68	1.8325014
81	0x3fafce94	1.3734918
82	0x3fc04278	1.5020285
83	0x3f6e3059	0.9304252
84	0x3f9c0f7c	1.2192225
85	0x3fc06be2	1.5032923
86	0x3f584bdd	0.8449076
87	0x3fe0674d	1.7531525
88	0x3fd39ac7	1.6531609
89	0x3f654f1e	0.8957385
90	0x3f822417	1.0167264
91	0x3f90ed34	1.1322389
92	0x3fb4a821	1.4113809
93	0x3f85b4d8	1.0445814
94	0x3ffc5f9a	1.9716675
95	0x3f1fd8cd	0.62440187
