Tutorial2_model_negative_weights.pt (torch, 9304 bytes, 4 tensors)

sim.layers.0.weight f4 [16, 24]
0	0x3f6dd783	0.9290697
1	0x3fbc13b0	1.4693508
2	0x3f6a5ad8	0.91544867
3	0x3f3e3ff4	0.74316335
4	0x3f16c29c	0.588907
5	0x3fb576c4	1.4176869
6	0x3fe03cc9	1.751855
7	0x3fcc1d4f	1.5946444
8	0x3fabdcca	1.3426754
9	0x3fc385e5	1.5275236
10	0x3f5c30a3	0.86011714
11	0x3fab45d8	1.338069
12	0x3f8fb202	1.1226199
13	0x3f86a9b8	1.0520544
14	0x3ff52c1d	1.9154087
15	0x3f535c4e	0.8256272
16	0x3fac5fb1	1.3466703
17	0x3f17af64	0.59252
18	0x3f9cd2e6	1.2251861
19	0x3f6aefcd	0.91772157
20	0x3fc3e441	1.5304033
21	0x3f6865f6	0.9078058
22	0x3ff81695	1.9381891
23	0x3f331dbd	0.6996725
24	0x3fcb076f	1.5861644
25	0x3f46304b	0.7741744
26	0x3fe17eb8	1.7616796
27	0x3f80ac26	1.0052536
28	0x3f8c0a1a	1.0940583
29	0x3fa4f40b	1.2886976
30	0x3fe25eca	1.7685177
31	0x3fc20644	1.5158162
32	0x3f2ee360	0.68315697
33	0x3fac1d8e	1.3446519
34	0x3f512d3a	0.81709635
35	0x3fdbb3d3	1.7164253
36	0x3fb46f6b	1.4096502
37	0x3f907fc5	1.1288992
38	0x3f7231f6	0.94607484
39	0x3fc4dc9f	1.5379828
40	0x3f47f5a8	0.78109217
41	0x3fc75e46	1.5575645
42	0x3fd016d1	1.6256963
43	0x3fdbe04e	1.7177827
44	0x3fbdce92	1.4828665
45	0x3f2f81dc	0.68557525
46	0x40003010	2.0029335
47	0x3f8735f0	1.0563335
48	0x3f86f292	1.0542777
49	0x3f9cc602	1.2247927
50	0x3fe48557	1.7853192
51	0x3feb4bbb	1.8382486
52	0x3faa53ce	1.3306825
53	0x3fde2462	1.7354853
54	0x3f2573e6	0.6462997
55	0x3f98a5f6	1.1925647
56	0x3f2e43c4	0.6807215
57	0x3fc23cc6	1.5174797
58	0x3f4d210b	0.80128545
59	0x3f8fe89f	1.1242865
60	0x3fe47b1a	1.7850068
61	0x40012f9a	2.0185304
62	0x3f45008b	0.76953954
63	0x3f6fba8a	0.9364401
64	0x3fbb8a0e	1.4651506
65	0x3fd43ae9	1.6580478
66	0x3f90f57d	1.1324917
67	0x3f853fca	1.0410092
68	0x3f5717f8	0.8402095
69	0x3fcd0429	1.6016895
70	0x40006cf5	2.0066502
71	0x3f6f67a1	0.935175
72	0x3fc7fff8	1.562499
73	0x3fd22900	1.6418762
74	0x3fec8827	1.847905
75	0x3f9c32de	1.2203023
76	0x3f930d96	1.1488521
77	0x400058ab	2.0054119
78	0x3fea1d69	1.8290225
79	0x4000a921	2.0103228
80	0x3f8cb92c	1.099401
81	0x3fc6ee1c	1.5541415
82	0x3fe4f72e	1.7887933
83	0x3f5d9a94	0.8656399
84	0x3fb75753	1.4323524
85	0x3f926457	1.1436871
86	0x3fd4ab66	1.6614807
87	0x3f89d3e3	1.0767788
88	0x3fafb8e2	1.3728297
89	0x3fd2ac1b	1.6458772
90	0x3f1b2ca4	0.6061499
91	0x3f35a8de	0.70960796
92	0x3f710442	0.9414712
93	0x3fe1b936	1.7634647
94	0x400032cd	2.0031006
95	0x3f4b80f6	0.79493654
96	0x3fb4b740	1.4118423
97	0x3f6dd869	0.9290834
98	0x3f6d3ed6	0.92674005
99	0x3ff3ac30	1.9036922
100	0x3fbfdf02	1.4989932
101	0x3fa3f17b	1.2808069
102	0x3fbf0dd3	1.4926094
103	0x3fbd4924	1.4787946
104	0x3fbb6354	1.4639688
105	0x3f855059	1.0415145
106	0x3f63458f	0.88778013
107	0x3ff34f9b	1.9008669
108	0x3fb1b43a	1.3883126
109	0x3fd84ba2	1.6898081
110	0x3f6d4974	0.92690206
111	0x3fe40129	1.7812854
112	0x3ff1926a	1.8872807
113	0x3fd497a7	1.6608781
114	0x3fb788d1	1.4338628
115	0x400043a7	2.0041292
116	0x3fa6343c	1.2984691
117	0x3fb9e32f	1.4522456
118	0x40008446	2.0080733
119	0x3ffa0d9d	1.9535404
120	0x3f6eb5a8	0.93245935
121	0x3ff71cab	1.9305624
122	0x3fc64a48	1.5491419
123	0x3f9c5ed2	1.2216437
124	0x3fe2beb8	1.7714453
125	0x3f9126a7	1.1339921
126	0x3fe93d85	1.8221899
127	0x3ff51340	1.91465
128	0x3f513494	0.8172085
129	0x3f5e6ae4	0.8688185
130	0x3f1b3a6b	0.60636014
131	0x3f9a051a	1.2032807
132	0x3f28b0f7	0.65895027
133	0x3f879afc	1.0594172
134	0x3fb793ae	1.4341943
135	0x3feae17b	1.8350061
136	0x3fd87d12	1.6913168
137	0x3fd50548	1.6642237
138	0x3fc3f2d9	1.5308486
139	0x3f5ee0bd	0.87061673
140	0x3f3e8420	0.74420357
141	0x3fad69a7	1.3547868
142	0x4000ce1a	2.0125794
143	0x3fa7c3a3	1.3106579
144	0x3f8f0c6f	1.117567
145	0x3f532b96	0.8248838
146	0x3f8568c8	1.0422602
147	0x3f42a947	0.76039547
148	0x3fe31c06	1.7742927
149	0x3fa0ee77	1.2572774
150	0x3f2849d6	0.65737665
151	0x3f9ba265	1.2158934
152	0x3face6f1	1.3507978
153	0x3f9904e4	1.1954618
154	0x3fc6793c	1.5505748
155	0x3fd1c81b	1.6389192
156	0x3f22543a	0.6340977
157	0x3f4e78ec	0.8065326
158	0x3f9f0f59	1.2426559
159	0x3f1c71b2	0.61110985
160	0x3f1e17b4	0.6175492
161	0x40008786	2.0082717
162	0x3f9813f8	1.1881094
163	0x3f6a2fe4	0.91479325
164	0x3f87aa6b	1.0598882
165	0x3f43a5a8	0.76424646
166	0x40006758	2.0063076
167	0x3f8ea7e8	1.1144991
168	0x3f45cb8d	0.7726372
169	0x3f44e476	0.76911104
170	0x3fe558d9	1.7917739
171	0x3f9a03b4	1.203238
172	0x3f8df80b	1.1091322
173	0x3f98e771	1.194563
174	0x3f75bd0e	0.959916
175	0x3fab00e4	1.3359647
176	0x3feb55e9	1.8385593
177	0x3f605a2c	0.8763759
178	0x3faab167	1.3335389
179	0x3f38716c	0.7204807
180	0x3f76f125	0.9646171
181	0x3ffad263	1.9595455
182	0x3fa77503	1.3082584
183	0x3ffa8002	1.9570315
184	0x3f8f89d8	1.1213942
185	0x3f786ba3	0.9703924
186	0x3f52ec7b	0.8239209
187	0x3ff13f54	1.8847451
188	0x3f42ff5f	0.76170915
189	0x3fd6bee5	1.6777006
190	0x3fda739a	1.7066529
191	0x3fbc6561	1.4718438
192	0x3fc4a8ab	1.5363973
193	0x3f8ef566	1.116864
194	0x3fee3b99	1.8611938
195	0x3f3e06ff	0.74229425
196	0x3f6e463b	0.93075913
197	0x3fec8956	1.8479412
198	0x3fbc9ad5	1.4734751
199	0x3f8b30d9	1.0874282
200	0x3f9179c5	1.1365286
201	0x3f5afd9c	0.8554323
202	0x3fdce291	1.7256643
203	0x3f926e5d	1.143993
204	0x3fa299cc	1.2703185
205	0x3fc157d7	1.5104932
206	0x3fef8d38	1.8714972
207	0x3f62709f	0.88453096
208	0x3f76781c	0.9627702
209	0x3fe805a9	1.8126727
210	0x3fd19267	1.6372803
211	0x3f689972	0.9085914
212	0x3f1b864c	0.60751796
213	0x3fb8abfe	1.4427488
214	0x3ff49d8e	1.9110582
215	0x3fb781f2	1.4336531
216	0x3fe7c8c8	1.8108149
217	0x3f3e9c05	0.74456817
218	0x3fc7deeb	1.5614904
219	0x3f5d6524	0.86482453
220	0x3fcd29c9	1.6028377
221	0x3ffaef50	1.9604282
222	0x3fcc2819	1.5949737
223	0x3fe89d90	1.8173084
224	0x3f56ae18	0.83859396
225	0x3f28c4a6	0.6592506
226	0x3f207f8f	0.6269464
227	0x3ff4a27b	1.9112085
228	0x3fc51eb0	1.539999
229	0x3f5712f4	0.84013295
230	0x3fbecb2d	1.4905754
231	0x40009720	2.009224
232	0x3f1460e7	0.5796036
233	0x3fe60da8	1.7972918
234	0x3facd146	1.3501365
235	0x3fb19404	1.3873296
236	0x3ff7057f	1.9298552
237	0x3ffa9a7a	1.9578393
238	0x3fec8357	1.8477582
239	0x3fe9279a	1.821521
240	0x3fcedead	1.6161705
241	0x3fb4ffe4	1.4140592
242	0x3f18c02a	0.5966822
243	0x3fb722bf	1.4307479
244	0x3f347737	0.7049441
245	0x3fd694c3	1.6764148
246	0x3fc0d1e5	1.5064055
247	0x3fa2307d	1.2671047
248	0x3f5246b4	0.82139134
249	0x3f5cb090	0.86206913
250	0x3fe8a072	1.8173964
251	0x3fe76d65	1.808026
252	0x3fd4f9a9	1.663869
253	0x3f92b83e	1.1462476
254	0x3f826980	1.0188446
255	0x3f9f7d62	1.2460139

sim.layers.2.weight f4 [24, 24]
0	0x3ff484e2	1.9103053
1	0x3f7030a0	0.93824196
2	0x3f876a91	1.0579396
3	0x3fb7e907	1.4367989
4	0x3fb6fefd	1.4296566
5	0x3fa38444	1.2774739
6	0x3fe88d3c	1.8168101
7	0x3f637753	0.8885395
8	0x3fd27d14	1.6444421
9	0x3fabe133	1.34281
10	0x3f40eba6	0.7535957
11	0x3f80c2f1	1.0059491
12	0x3fa5b056	1.2944438
13	0x3fa48785	1.2853857
14	0x3fd51321	1.6646463
15	0x3ff1c9cc	1.8889709
16	0x3f61f9ba	0.8827168
17	0x3f739492	0.95148575
18	0x3f9c99f2	1.223448
19	0x3f519232	0.818637
20	0x3f896e7f	1.0736846
21	0x3f22b4e4	0.6355727
22	0x3fc87a89	1.5662395
23	0x3fe8b081	1.8178865
24	0x3fad7e84	1.3554235
25	0x3f4c83a2	0.79888356
26	0x3f451725	0.7698844
27	0x3f8384d0	1.0274906
28	0x3fc075e1	1.5035974
29	0x3fa895e5	1.3170744
30	0x3fb6b0f6	1.4272754
31	0x3ffad8a9	1.959737
32	0x3fd00396	1.6251094
33	0x3fb9aa80	1.4505157
34	0x3f94459f	1.1583747
35	0x3fd0c902	1.6311343
36	0x3fc72de8	1.5560884
37	0x3f2b806e	0.66992843
38	0x3f62f1e9	0.88650376
39	0x3fa96851	1.323496
40	0x3fc865e6	1.5656097
41	0x3fd1fd9c	1.640552
42	0x3f622047	0.883305
43	0x3f1b035c	0.60552
44	0x3fa1bb8b	1.2635359
45	0x3f9c283c	1.2199779
46	0x3fc0666f	1.503126
47	0x3f8dc26a	1.1074955
48	0x3fd58a1b	1.6682771
49	0x3fa84055	1.3144633
50	0x3ff21955	1.8913981
51	0x3f4fee8f	0.81223387
52	0x3fc30a87	1.5237588
53	0x3fb6f835	1.4294497
54	0x3f4cc6b0	0.79990673
55	0x3fce5b54	1.6121621
56	0x3f154e92	0.58323014
57	0x3fcfb150	1.6225986
58	0x3fa38d1a	1.2777436
59	0x3faff1e8	1.3745699
60	0x3fcfa7c4	1.6223073
61	0x3fb5af40	1.4194107
62	0x3fd6557c	1.6744838
63	0x3fd43c3f	1.6580886
64	0x3f456891	0.7711268
65	0x3fe07a2a	1.7537282
66	0x3f97af37	1.1850346
67	0x3fa23a7a	1.2674096
68	0x3fb0bc64	1.3807492
69	0x3fd880d4	1.6914315
70	0x3f6b6258	0.91946936
71	0x3f3c1e70	0.73483944
72	0x3fde01a4	1.7344251
73	0x3f78a2b1	0.9712325
74	0x3fc33f2a	1.5253651
75	0x3f993318	1.1968718
76	0x3fbf100b	1.4926771
77	0x3feac66e	1.8341806
78	0x3f71fb4c	0.94524074
79	0x3f75d73d	0.9603155
80	0x3fd25c10	1.6434345
81	0x3fab4e4a	1.3383267
82	0x3f9c89ee	1.2229593
83	0x3f2f6492	0.68512833
84	0x3ff25079	1.8930808
85	0x3fa301bc	1.2734904
86	0x3f95e595	1.1710688
87	0x3f819ebf	1.012657
88	0x3f94b7ef	1.1618632
89	0x3fd1f2dc	1.640224
90	0x3fa45738	1.2839117
91	0x3ff306d5	1.898646
92	0x3fa13a1b	1.2595857
93	0x3f998bd3	1.1995796
94	0x3fd8f991	1.6951162
95	0x3fa414e1	1.2818872
96	0x3f92fc1e	1.148319
97	0x3fc0b370	1.505476
98	0x40011afd	2.0172722
99	0x3fb9e30d	1.4522415
100	0x3fde48ad	1.7365929
101	0x3fde2d2f	1.7357539
102	0x3fbc2a4a	1.4700406
103	0x3fc1d689	1.5143596
104	0x3fbbbb5c	1.4666553
105	0x3fa4468d	1.283403
106	0x3fe74d86	1.8070533
107	0x3ffb561a	1.9635651
108	0x3fae04ea	1.359525
109	0x3f92c35e	1.1465871
110	0x3ff4b1bc	1.911674
111	0x3f3f8fe4	0.74828935
112	0x3fe0974a	1.754617
113	0x3fe01dac	1.7509055
114	0x3ff0b715	1.8805872
115	0x3fa24d79	1.2679893
116	0x3f3def81	0.7419358
117	0x3fcb1c10	1.5867939
118	0x3f7e719d	0.9939211
119	0x3fbff3a7	1.4996232
120	0x3fd58e4d	1.6684052
121	0x3f1b8490	0.6074915
122	0x3fb05ad1	1.3777715
123	0x3f98cbd6	1.1937206
124	0x3fde3626	1.7360275
125	0x3f73c55e	0.95223033
126	0x3fe63ec5	1.7987906
127	0x3fd9346a	1.696912
128	0x3fe226fd	1.7668148
129	0x3ff98b9c	1.949573
130	0x3fb8fab1	1.4451505
131	0x3f2d604d	0.6772507
132	0x3fd501ca	1.6641171
133	0x3f9c0df2	1.2191756
134	0x3f921cb4	1.141501
135	0x3f11928c	0.5686424
136	0x3f8f00c2	1.1172106
137	0x3f71f983	0.9452135
138	0x3ffbf066	1.9682739
139	0x3ff0e2d3	1.8819221
140	0x3fdf2b4f	1.7435092
141	0x3fc8ba67	1.5681885
142	0x3f5db7f7	0.86608833
143	0x3f819cb2	1.0125945
144	0x3f4ace7c	0.7922132
145	0x3f7d7e5f	0.9902095
146	0x4001aa4e	2.0260196
147	0x3febacf2	1.8412154
148	0x3fe505f5	1.7892443
149	0x3fa273f3	1.2691635
150	0x3f177444	0.5916178
151	0x3f8b93eb	1.0904516
152	0x40001f44	2.0019083
153	0x3fc63fb5	1.5488192
154	0x3fd2cc59	1.6468612
155	0x3f8fb299	1.1226379
156	0x3f850521	1.039219
157	0x3faaf11a	1.3354828
158	0x3faa9d52	1.332926
159	0x3f9cad50	1.2240391
160	0x3fc9c18c	1.5762191
161	0x3f7136ec	0.9422443
162	0x3f172af5	0.5904992
163	0x3ff734e2	1.9313014
164	0x3f880dfa	1.0629265
165	0x3fafb370	1.3726635
166	0x3f84452c	1.033361
167	0x3f14bce0	0.581007
168	0x3fa53784	1.2907567
169	0x3fbc5ab0	1.4715176
170	0x3f687cb4	0.9081528
171	0x3fe5e2a1	1.7959787
172	0x3f222a66	0.63345945
173	0x3f1768fc	0.5914457
174	0x3f5099c5	0.81484634
175	0x3f842fde	1.0327108
176	0x3f9d9149	1.2309963
177	0x3f81a691	1.0128957
178	0x3fceeecd	1.6166626
179	0x3f3343d1	0.70025355
180	0x3fb1f5b2	1.3903105
181	0x3fad88f4	1.355742
182	0x3fbb25a2	1.462086
183	0x40009bbb	2.009505
184	0x3fd55d98	1.6669188
185	0x3f5931c1	0.84841543
186	0x3f318f7e	0.69359577
187	0x3f983bbe	1.1893232
188	0x3f666b5c	0.9000757
189	0x3fb4fa26	1.4138839
190	0x3fa738ab	1.3064169
191	0x3fe2d7a1	1.7722055
192	0x3fc9986e	1.5749643
193	0x3f95ecdb	1.1712908
194	0x3fa97ac4	1.324059
195	0x3fbbdba2	1.4676402
196	0x3f9b4823	1.2131389
197	0x3feeb38b	1.8648542
198	0x3f40aef8	0.7526698
199	0x3fd21252	1.6411841
200	0x3f5a91ef	0.85378927
201	0x3f2fce64	0.686743
202	0x3f940163	1.1562923
203	0x3fd21001	1.6411134
204	0x3fe5b53c	1.7945933
205	0x3fbce26b	1.4756597
206	0x3f9ea7ed	1.2394997
207	0x3fa16089	1.2607585
208	0x3f8213ed	1.0162331
209	0x3f9e5c0a	1.2371838
210	0x3fa0358d	1.2516342
211	0x3ff2a571	1.8956739
212	0x3fdad67f	1.7096709
213	0x3f3d665e	0.73984325
214	0x3fa6c549	1.3028957
215	0x3f5e9459	0.8694511
216	0x3f96f65d	1.1793934
217	0x3f3e60a8	0.74366236
218	0x3fbdb149	1.4819728
219	0x3f4b9534	0.7952454
220	0x3fff6882	1.9953768
221	0x3fec1d79	1.8446494
222	0x3f59f15e	0.8513392
223	0x3f2416f4	0.64097524
224	0x3fab0e77	1.3363789
225	0x3f8f390a	1.1189282
226	0x3fbf3aec	1.4939857
227	0x3f537f3b	0.82616013
228	0x3fcd57d8	1.6042433
229	0x3f341786	0.70348394
230	0x3f70f7e1	0.94128233
231	0x3f6bffe4	0.92187333
232	0x3fd36446	1.6514976
233	0x3fa54b5f	1.2913626
234	0x3f1ba8f8	0.608047
235	0x3f66748e	0.900216
236	0x3f79ded1	0.97605616
237	0x3f247ba6	0.6425117
238	0x3fb1df7d	1.3896328
239	0x3fc6116a	1.5474064
240	0x3f95f5dd	1.1715657
241	0x3f82be80	1.0214386
242	0x3fa5db4b	1.2957548
243	0x3f3e76f8	0.7440028
244	0x3f5faf53	0.873769
245	0x3fa45b47	1.2840356
246	0x3ff5ffa5	1.9218642
247	0x3f8ad8e6	1.0847442
248	0x3fd2cfa4	1.6469617
249	0x3f83234d	1.0245148
250	0x3f8e8c76	1.1136615
251	0x3f223629	0.6336389
252	0x3ff0a1dc	1.8799396
253	0x3ffda560	1.9816093
254	0x3fa484a3	1.2852978
255	0x3fdf5442	1.7447588

sim.layers.4.weight f4 [24, 24]
0	0x3fe8d0ea	1.8188756
1	0x3fb04ec2	1.3774035
2	0x3fede77b	1.8586267
3	0x3fc30f19	1.5238982
4	0x3ff5c4a0	1.920063
5	0x3fd50f6b	1.664533
6	0x3fdba29a	1.7158997
7	0x3f9a1b17	1.2039517
8	0x3f2ed145	0.6828807
9	0x3f7725d0	0.9654207
10	0x3fcb7c13	1.589724
11	0x3fe63a47	1.7986535
12	0x3f836994	1.0266595
13	0x3ff25dcf	1.8934878
14	0x3fae8621	1.3634683
15	0x3fb0ec3d	1.3822094
16	0x3fac4630	1.345892
17	0x3f9670ac	1.1753135
18	0x3ff1a68f	1.8878955
19	0x3fb2d99f	1.3972663
20	0x3fcd583d	1.6042553
21	0x3f1982e2	0.59965336
22	0x3f7dec38	0.99188566
23	0x3fb4792e	1.4099481
24	0x3fe81d3e	1.8133924
25	0x3fc9d0f3	1.5766891
26	0x3fbc0c39	1.469123
27	0x3f17b509	0.5926061
28	0x3fa3f65c	1.2809558
29	0x3f3cbfae	0.7372998
30	0x3f397a61	0.7245236
31	0x3fae3b4a	1.3611844
32	0x3f5ae51e	0.85505855
33	0x3ff4321b	1.9077791
34	0x3f61ad94	0.88155484
35	0x3fc1aad4	1.5130258
36	0x3fd672f6	1.6753833
37	0x3f4c3b69	0.7977815
38	0x3fcc6952	1.5969641
39	0x3fa173b9	1.2613441
40	0x3fd55ad7	1.6668347
41	0x4000f030	2.01466
42	0x3f7b4c5f	0.9816341
43	0x3f88d89f	1.0691108
44	0x3feddf47	1.8583764
45	0x3fac9b33	1.3484863
46	0x3f9cd6c6	1.2253044
47	0x3ff23a6f	1.8924083
48	0x3f53fa89	0.8280416
49	0x3f4e92fd	0.80693036
50	0x3fca72d2	1.581629
51	0x3fc13ce6	1.509671
52	0x3f51d9dd	0.8197306
53	0x3fb66224	1.42487
54	0x3f464998	0.77456045
55	0x3f47b716	0.7801374
56	0x3ffde826	1.9836471
57	0x3f8b206b	1.0869268
58	0x3f6ac3a8	0.917048
59	0x3fb91adb	1.4461321
60	0x3fa833e0	1.3140831
61	0x3f7bcbe5	0.98357993
62	0x3f4c55fb	0.79818696
63	0x3f69821a	0.91214144
64	0x3fd50463	1.6641964
65	0x3f3552d8	0.70829535
66	0x3fcff1e2	1.6245692
67	0x3f60c978	0.87807417
68	0x3f2be8ad	0.6715191
69	0x3f9234f3	1.1422409
70	0x3f156332	0.58354485
71	0x3f60f7e0	0.8787823
72	0x3f9cd9f1	1.225401
73	0x3f151061	0.5822812
74	0x3f173109	0.59059197
75	0x3fce72c4	1.6128774
76	0x3f9f0a89	1.242509
77	0x3f7a1d56	0.97701013
78	0x3fa2e885	1.2727209
79	0x3fd7ddbb	1.6864542
80	0x3f572159	0.8403526
81	0x3f6579ca	0.8963896
82	0x3f4e9b4f	0.8070573
83	0x3faa7d56	1.33195
84	0x3f9da68d	1.2316452
85	0x3f211195	0.62917453
86	0x40002ce8	2.0027409
87	0x3f3dd92b	0.741595
88	0x4000a01c	2.0097723
89	0x3f32001c	0.69531417
90	0x3fb0b16a	1.3804142
91	0x3fa62d22	1.2982523
92	0x3f64f248	0.8943219
93	0x3ffa909a	1.9575379
94	0x3f4eb5e5	0.807463
95	0x3f977442	1.1832354
96	0x3f42d5ca	0.76107466
97	0x3fb39e1c	1.4032626
98	0x3ff3bf15	1.9042689
99	0x3ffa9372	1.9576247
100	0x3fa3e4ac	1.280416
101	0x3f87a5d2	1.0597479
102	0x3ff5cd69	1.9203311
103	0x3fa12068	1.2588015
104	0x3fe85214	1.8150048
105	0x3f74ba4e	0.9559678
106	0x3f759cb4	0.95942235
107	0x3f4c229b	0.79740304
108	0x3ff0b460	1.8805046
109	0x3f9e94a5	1.2389113
110	0x3f898e0f	1.0746478
111	0x3fa78b98	1.3089476
112	0x3f869beb	1.0516332
113	0x3f94ee0c	1.1635146
114	0x3fd6ea27	1.6790208
115	0x3f5d9962	0.8656217
116	0x3f9df6bc	1.2340922
117	0x3f597a90	0.8495264
118	0x3fb85b7d	1.440292
119	0x3f1c009a	0.6093842
120	0x3fbed8db	1.4909929
121	0x40019b5c	2.0251074
122	0x40010a0c	2.0162382
123	0x4000c23c	2.0118551
124	0x3fe3340a	1.7750256
125	0x3fd89964	1.6921811
126	0x3fb81259	1.4380599
127	0x3fdedd5d	1.7411305
128	0x3fbf7afb	1.4959406
129	0x40007b30	2.0075188
130	0x3ff041be	1.8770063
131	0x3fa2e591	1.2726308
132	0x3fa1d1a1	1.2642099
133	0x3fab4c2c	1.3382621
134	0x3f91a208	1.1377573
135	0x3f4e45e0	0.8057537
136	0x3fb2803f	1.3945388
137	0x3f2ea1a7	0.6821541
138	0x3fd7b9da	1.6853592
139	0x3f9459c5	1.1589895
140	0x3f61cb33	0.8820068
141	0x3fbd2643	1.4777302
142	0x3fa23580	1.2672577
143	0x3f3ad278	0.729774
144	0x40005a45	2.0055096
145	0x3ff5633d	1.917091
146	0x3ff35af5	1.9012133
147	0x3faf9c3a	1.3719552
148	0x3fc35cbd	1.5262676
149	0x3f66aca7	0.90107197
150	0x3f852ee6	1.0404937
151	0x3fc9891b	1.5744966
152	0x3fc15f4e	1.510721
153	0x3fc9cb86	1.5765235
154	0x3f238712	0.63877976
155	0x3fe840af	1.814474
156	0x3f7ae4ab	0.9800517
157	0x3fedc373	1.8575271
158	0x3feefc4e	1.8670747
159	0x3fc6d7d4	1.5534616
160	0x3ff5e51b	1.9210542
161	0x3fdb983e	1.7155836
162	0x3fd292de	1.645107
163	0x3f95fa90	1.1717091
164	0x3ff176a9	1.8864337
165	0x3fb00389	1.3751079
166	0x3feb9d4f	1.8407382
167	0x3f9468d0	1.1594486
168	0x3fe701cb	1.8047422
169	0x3fedc722	1.8576396
170	0x3f55eb09	0.8356176
171	0x3ff01ade	1.8758199
172	0x3f5944ca	0.8487059
173	0x3f4e3991	0.8055659
174	0x3f370b8f	0.7150201
175	0x3fc31858	1.5241804
176	0x3f3ea4c9	0.7447019
177	0x3f84abe9	1.0364963
178	0x3f72b7fe	0.94812
179	0x3fba28cc	1.45437
180	0x3f1cde51	0.6127673
181	0x3f84f8ef	1.0388469
182	0x3fa5062e	1.2892511
183	0x3fb11eab	1.3837484
184	0x3f7d16a7	0.9886269
185	0x3fc01269	1.5005618
186	0x3f5a5356	0.8528341
187	0x3f397ca9	0.7245584
188	0x3f9b4553	1.2130531
189	0x3f6a4179	0.91506153
190	0x3fde72b0	1.737875
191	0x3f54a89c	0.8306978
192	0x3fb3b178	1.4038534
193	0x3fc0977c	1.5046229
194	0x3f885428	1.0650682
195	0x40007045	2.0068524
196	0x3f84450b	1.033357
197	0x3f924209	1.1426402
198	0x3f676662	0.903906
199	0x3f8d5885	1.1042639
200	0x3f9563b1	1.1671048
201	0x3f39aa10	0.7252512
202	0x3fdcc7ce	1.7248476
203	0x3fc1f2c2	1.5152209
204	0x3fed7021	1.8549844
205	0x3fd85fc5	1.6904227
206	0x3ff53e9f	1.9159735
207	0x3fb7f1ec	1.4370704
208	0x3fe0e7a4	1.7570691
209	0x3fde1746	1.7350852
210	0x3feca965	1.8489195
211	0x3f338340	0.70122147
212	0x3f8387a0	1.0275764
213	0x3f1871d7	0.59548706
214	0x3fa7648a	1.3077557
215	0x3f974219	1.1817046
216	0x3ff9b202	1.9507449
217	0x3fae73a2	1.3629038
218	0x3fb3fee8	1.4062166
219	0x3f3ee1d9	0.74563366
220	0x3f34e99e	0.7066897
221	0x3fb9cd84	1.4515843
222	0x3f6bec23	0.9215719
223	0x3f57916b	0.84206265
224	0x3fe935a3	1.8219494
225	0x3f667dd3	0.9003574
226	0x3f8fc701	1.1232606
227	0x3fecc632	1.8497984
228	0x3fba50f7	1.4555959
229	0x3f2f73e8	0.68536234
230	0x3fdc438b	1.7208112
231	0x3fcf5ffe	1.620117
232	0x3f38a3a5	0.721247
233	0x3fb67114	1.4253259
234	0x3fb9e177	1.4521931
235	0x3fa7276f	1.3058909
236	0x40005f8d	2.005832
237	0x3f48d4e5	0.7844985
238	0x3fe04c4d	1.7523285
239	0x3f565eb8	0.8373828
240	0x3f188a77	0.5958628
241	0x3fcfe95f	1.6243094
242	0x3f8a8457	1.0821637
243	0x3fad9f42	1.3564227
244	0x3fdba131	1.7158567
245	0x3f18b2f1	0.5964804
246	0x3f2bbaad	0.6708172
247	0x3fb76516	1.4327724
248	0x3ff802ce	1.9375856
249	0x3f988a8f	1.1917285
250	0x3ff28faf	1.8950099
251	0x3fc6a133	1.5517944
252	0x3fb3e396	1.4053829
253	0x3f595854	0.84900403
254	0x3ff5149c	1.9146914
255	0x3fe141d0	1.7598209

sim.layers.6.weight f4 [24, 4]
0	0x3fe67c28	1.800664
1	0x3f86430b	1.048921
2	0x3ff4cc1d	1.912479
3	0x3fdd7875	1.7302386
4	0x3ff510c8	1.9145746
5	0x3f311e7b	0.69187135
6	0x3fade8a3	1.358662
7	0x3f7b9fad	0.9829052
8	0x3fbc359e	1.4703863
9	0x3f15cc18	0.5851455
10	0x3fdab2c4	1.7085805
11	0x3f93a2db	1.1534075
12	0x3f6782f4	0.90434194
13	0x3f2a1976	0.664451
14	0x3fec5a6d	1.8465096
15	0x3f8ecd7d	1.115646
16	0x3fc96803	1.5734867
17	0x3fb9541c	1.4478793
18	0x3fe4bdc0	1.7870407
19	0x3f910cd8	1.1332045
20	0x3f9a09e4	1.2034268
21	0x3f993beb	1.197141
22	0x3f14ce31	0.58127123
23	0x3fdab462	1.7086298
24	0x3f363e9e	0.71189296
25	0x3fd3449e	1.6505315
26	0x3fa2d0b0	1.2719936
27	0x3fd453be	1.6588056
28	0x3fd92079	1.6963035
29	0x3f617522	0.88069355
30	0x40008190	2.0079079
31	0x3f9d0dd4	1.2269845
32	0x3f41694f	0.75551313
33	0x3fc81a60	1.5633049
34	0x3fdb98ef	1.7156047
35	0x3ff3b691	1.904009
36	0x3f189613	0.59603995
37	0x3ff92b78	1.9466391
38	0x40001e31	2.0018427
39	0x3ff5341e	1.915653
40	0x3fd1e11a	1.639682
41	0x3f69be74	0.91306233
42	0x40016c3a	2.0222306
43	0x3fe1c1a1	1.7637216
44	0x3f81ad80	1.0131073
45	0x3fa2059e	1.2657964
46	0x3ff03fcb	1.8769468
47	0x3fe9d21a	1.8267243
48	0x3fd41830	1.6569881
49	0x3fe44023	1.7832073
50	0x3f8760fc	1.0576472
51	0x3f9db018	1.2319365
52	0x3f800811	1.0002462
53	0x3fe019d6	1.7507885
54	0x3fc42954	1.5325112
55	0x3f319a42	0.69376004
56	0x3f98ca29	1.1936694
57	0x3f32693e	0.69691837
58	0x3f22722d	0.6345547
59	0x3ff9948a	1.9498456
60	0x3f752cc6	0.95771444
61	0x3fce4e6d	1.6117684
62	0x3f933788	1.1501322
63	0x3f98ed4d	1.1947418
64	0x3f9f47fd	1.2443844
65	0x3ff35448	1.9010096
66	0x3f96d050	1.1782322
67	0x3fe4c968	1.7873964
68	0x3fd7d4fc	1.6861873
69	0x3fef242a	1.8682911
70	0x3f2ac48f	0.66706175
71	0x3f6c645a	0.92340624
72	0x3f35f9e9	0.7108446
73	0x3fa3a290	1.2783985
74	0x3f945c2c	1.1590629
75	0x3fb6df7d	1.4286953
76	0x3ff1dd23	1.889561
77	0x3fdafe9f	1.7108954
78	0x3f46dbc9	0.77679116
79	0x3f3f1261	0.7463742
80	0x3fe6f9d2	1.8044989
81	0x3fa03935	1.2517458
82	0x3fb720b2	1.4306853
83	0x3f8a338f	1.0796984
84	0x3f980086	1.187516
85	0x3fbc0a05	1.4690558
86	0x3f7eb0ac	0.9948833
87	0x3fdca3d8	1.7237501
88	0x3fd8c997	1.693652
89	0x3f4c334c	0.7976577
90	0x3f8ab66d	1.0836922
91	0x3f836c80	1.0267487
92	0x3faf7677	1.3708028
93	0x3f7ee190	0.9956293
94	0x4000aa97	2.010412
95	0x3f1790d3	0.5920536
